…
To enable the following instructions: SSE SSE2 SSE3 SSE4.1 SSE4.2 AVX AVX2 FMA, in other operations, rebuild TensorFlow with the appropriate compiler flags.
WARNING:absl:`lr` is deprecated in Keras optimizer, please use `learning_rate` or use the legacy optimizer, e.g.,tf.keras.optimizers.legacy.Adam.
Model: "model"
_________________________________________________________________
 Layer (type)                Output Shape              Param #
=================================================================
 input_1 (InputLayer)        [(None, 128, 128, 3)]     0

 block1_conv1 (Conv2D)       (None, 128, 128, 64)      1792

 block1_conv2 (Conv2D)       (None, 128, 128, 64)      36928

 block1_pool (MaxPooling2D)  (None, 64, 64, 64)        0

 block2_conv1 (Conv2D)       (None, 64, 64, 128)       73856

 block2_conv2 (Conv2D)       (None, 64, 64, 128)       147584

 block2_pool (MaxPooling2D)  (None, 32, 32, 128)       0

 block3_conv1 (Conv2D)       (None, 32, 32, 256)       295168

 block3_conv2 (Conv2D)       (None, 32, 32, 256)       590080

 block3_conv3 (Conv2D)       (None, 32, 32, 256)       590080

 block3_pool (MaxPooling2D)  (None, 16, 16, 256)       0

 block4_conv1 (Conv2D)       (None, 16, 16, 512)       1180160

 block4_conv2 (Conv2D)       (None, 16, 16, 512)       2359808

 block4_conv3 (Conv2D)       (None, 16, 16, 512)       2359808

 block4_pool (MaxPooling2D)  (None, 8, 8, 512)         0

 block5_conv1 (Conv2D)       (None, 8, 8, 512)         2359808

 block5_conv2 (Conv2D)       (None, 8, 8, 512)         2359808

 block5_conv3 (Conv2D)       (None, 8, 8, 512)         2359808

 block5_pool (MaxPooling2D)  (None, 4, 4, 512)         0

 global_average_pooling2d (  (None, 512)               0
 GlobalAveragePooling2D)

 dense (Dense)               (None, 128)               65664

 dense_1 (Dense)             (None, 7)                 903

=================================================================
Total params: 14781255 (56.39 MB)
Trainable params: 14781255 (56.39 MB)
Non-trainable params: 0 (0.00 Byte)
_________________________________________________________________
Epoch 1/50
62/62 [==============================] - 189s 3s/step - loss: 1.2207 - accuracy: 0.6418 - val_loss: 1.9065 - val_accuracy: 0.1093
Epoch 2/50
62/62 [==============================] - 188s 3s/step - loss: 1.1566 - accuracy: 0.6667 - val_loss: 1.8979 - val_accuracy: 0.1101
…
Processing image 1000
Processing image 2000
Processing image 3000
Processing image 4000
Processing image 5000
Processing image 6000
Processing image 7000
Processing image 8000
Processing image 9000
Processing image 10000
Model: "model_1"
__________________________________________________________________________________________________
 Layer (type)                Output Shape                 Param #   Connected to
==================================================================================================
 input_2 (InputLayer)        [(None, 128, 128, 3)]        0         []

 conv1_pad (ZeroPadding2D)   (None, 134, 134, 3)          0         ['input_2[0][0]']

 conv1_conv (Conv2D)         (None, 64, 64, 64)           9472      ['conv1_pad[0][0]']

 conv1_bn (BatchNormalizati  (None, 64, 64, 64)           256       ['conv1_conv[0][0]']
 on)

 conv1_relu (Activation)     (None, 64, 64, 64)           0         ['conv1_bn[0][0]']

 pool1_pad (ZeroPadding2D)   (None, 66, 66, 64)           0         ['conv1_relu[0][0]']

 pool1_pool (MaxPooling2D)   (None, 32, 32, 64)           0         ['pool1_pad[0][0]']

 conv2_block1_1_conv (Conv2  (None, 32, 32, 64)           4160      ['pool1_pool[0][0]']
 D)

 conv2_block1_1_bn (BatchNo  (None, 32, 32, 64)           256       ['conv2_block1_1_conv[0][0]']
 rmalization)

 conv2_block1_1_relu (Activ  (None, 32, 32, 64)           0         ['conv2_block1_1_bn[0][0]']
 ation)

 conv2_block1_2_conv (Conv2  (None, 32, 32, 64)           36928     ['conv2_block1_1_relu[0][0]']
 D)

 conv2_block1_2_bn (BatchNo  (None, 32, 32, 64)           256       ['conv2_block1_2_conv[0][0]']
 rmalization)

 conv2_block1_2_relu (Activ  (None, 32, 32, 64)           0         ['conv2_block1_2_bn[0][0]']
 ation)

 conv2_block1_0_conv (Conv2  (None, 32, 32, 256)          16640     ['pool1_pool[0][0]']
 D)

 conv2_block1_3_conv (Conv2  (None, 32, 32, 256)          16640     ['conv2_block1_2_relu[0][0]']
 D)

 conv2_block1_0_bn (BatchNo  (None, 32, 32, 256)          1024      ['conv2_block1_0_conv[0][0]']
 rmalization)

 conv2_block1_3_bn (BatchNo  (None, 32, 32, 256)          1024      ['conv2_block1_3_conv[0][0]']
 rmalization)

 conv2_block1_add (Add)      (None, 32, 32, 256)          0         ['conv2_block1_0_bn[0][0]',
                                                                     'conv2_block1_3_bn[0][0]']

 conv2_block1_out (Activati  (None, 32, 32, 256)          0         ['conv2_block1_add[0][0]']
 on)

 conv2_block2_1_conv (Conv2  (None, 32, 32, 64)           16448     ['conv2_block1_out[0][0]']
 D)

 conv2_block2_1_bn (BatchNo  (None, 32, 32, 64)           256       ['conv2_block2_1_conv[0][0]']
 rmalization)

 conv2_block2_1_relu (Activ  (None, 32, 32, 64)           0         ['conv2_block2_1_bn[0][0]']
 ation)

 conv2_block2_2_conv (Conv2  (None, 32, 32, 64)           36928     ['conv2_block2_1_relu[0][0]']
 D)

 conv2_block2_2_bn (BatchNo  (None, 32, 32, 64)           256       ['conv2_block2_2_conv[0][0]']
 rmalization)

 conv2_block2_2_relu (Activ  (None, 32, 32, 64)           0         ['conv2_block2_2_bn[0][0]']
 ation)

 conv2_block2_3_conv (Conv2  (None, 32, 32, 256)          16640     ['conv2_block2_2_relu[0][0]']
 D)

 conv2_block2_3_bn (BatchNo  (None, 32, 32, 256)          1024      ['conv2_block2_3_conv[0][0]']
 rmalization)

 conv2_block2_add (Add)      (None, 32, 32, 256)          0         ['conv2_block1_out[0][0]',
                                                                     'conv2_block2_3_bn[0][0]']

 conv2_block2_out (Activati  (None, 32, 32, 256)          0         ['conv2_block2_add[0][0]']
 on)

 conv2_block3_1_conv (Conv2  (None, 32, 32, 64)           16448     ['conv2_block2_out[0][0]']
 D)

 conv2_block3_1_bn (BatchNo  (None, 32, 32, 64)           256       ['conv2_block3_1_conv[0][0]']
 rmalization)

 conv2_block3_1_relu (Activ  (None, 32, 32, 64)           0         ['conv2_block3_1_bn[0][0]']
 ation)

 conv2_block3_2_conv (Conv2  (None, 32, 32, 64)           36928     ['conv2_block3_1_relu[0][0]']
 D)

 conv2_block3_2_bn (BatchNo  (None, 32, 32, 64)           256       ['conv2_block3_2_conv[0][0]']
 rmalization)

 conv2_block3_2_relu (Activ  (None, 32, 32, 64)           0         ['conv2_block3_2_bn[0][0]']
 ation)

 conv2_block3_3_conv (Conv2  (None, 32, 32, 256)          16640     ['conv2_block3_2_relu[0][0]']
 D)

 conv2_block3_3_bn (BatchNo  (None, 32, 32, 256)          1024      ['conv2_block3_3_conv[0][0]']
 rmalization)

 conv2_block3_add (Add)      (None, 32, 32, 256)          0         ['conv2_block2_out[0][0]',
                                                                     'conv2_block3_3_bn[0][0]']

 conv2_block3_out (Activati  (None, 32, 32, 256)          0         ['conv2_block3_add[0][0]']
 on)

 conv3_block1_1_conv (Conv2  (None, 16, 16, 128)          32896     ['conv2_block3_out[0][0]']
 D)

 conv3_block1_1_bn (BatchNo  (None, 16, 16, 128)          512       ['conv3_block1_1_conv[0][0]']
 rmalization)

 conv3_block1_1_relu (Activ  (None, 16, 16, 128)          0         ['conv3_block1_1_bn[0][0]']
 ation)

 conv3_block1_2_conv (Conv2  (None, 16, 16, 128)          147584    ['conv3_block1_1_relu[0][0]']
 D)

 conv3_block1_2_bn (BatchNo  (None, 16, 16, 128)          512       ['conv3_block1_2_conv[0][0]']
 rmalization)

 conv3_block1_2_relu (Activ  (None, 16, 16, 128)          0         ['conv3_block1_2_bn[0][0]']
 ation)

 conv3_block1_0_conv (Conv2  (None, 16, 16, 512)          131584    ['conv2_block3_out[0][0]']
 D)

 conv3_block1_3_conv (Conv2  (None, 16, 16, 512)          66048     ['conv3_block1_2_relu[0][0]']
 D)

 conv3_block1_0_bn (BatchNo  (None, 16, 16, 512)          2048      ['conv3_block1_0_conv[0][0]']
 rmalization)

 conv3_block1_3_bn (BatchNo  (None, 16, 16, 512)          2048      ['conv3_block1_3_conv[0][0]']
 rmalization)

 conv3_block1_add (Add)      (None, 16, 16, 512)          0         ['conv3_block1_0_bn[0][0]',
                                                                     'conv3_block1_3_bn[0][0]']

 conv3_block1_out (Activati  (None, 16, 16, 512)          0         ['conv3_block1_add[0][0]']
 on)

 conv3_block2_1_conv (Conv2  (None, 16, 16, 128)          65664     ['conv3_block1_out[0][0]']
 D)

 conv3_block2_1_bn (BatchNo  (None, 16, 16, 128)          512       ['conv3_block2_1_conv[0][0]']
 rmalization)

 conv3_block2_1_relu (Activ  (None, 16, 16, 128)          0         ['conv3_block2_1_bn[0][0]']
 ation)

 conv3_block2_2_conv (Conv2  (None, 16, 16, 128)          147584    ['conv3_block2_1_relu[0][0]']
 D)

 conv3_block2_2_bn (BatchNo  (None, 16, 16, 128)          512       ['conv3_block2_2_conv[0][0]']
 rmalization)

 conv3_block2_2_relu (Activ  (None, 16, 16, 128)          0         ['conv3_block2_2_bn[0][0]']
 ation)

 conv3_block2_3_conv (Conv2  (None, 16, 16, 512)          66048     ['conv3_block2_2_relu[0][0]']
 D)

 conv3_block2_3_bn (BatchNo  (None, 16, 16, 512)          2048      ['conv3_block2_3_conv[0][0]']
 rmalization)

 conv3_block2_add (Add)      (None, 16, 16, 512)          0         ['conv3_block1_out[0][0]',
                                                                     'conv3_block2_3_bn[0][0]']

 conv3_block2_out (Activati  (None, 16, 16, 512)          0         ['conv3_block2_add[0][0]']
 on)

 conv3_block3_1_conv (Conv2  (None, 16, 16, 128)          65664     ['conv3_block2_out[0][0]']
 D)

 conv3_block3_1_bn (BatchNo  (None, 16, 16, 128)          512       ['conv3_block3_1_conv[0][0]']
 rmalization)

 conv3_block3_1_relu (Activ  (None, 16, 16, 128)          0         ['conv3_block3_1_bn[0][0]']
 ation)

 conv3_block3_2_conv (Conv2  (None, 16, 16, 128)          147584    ['conv3_block3_1_relu[0][0]']
 D)

 conv3_block3_2_bn (BatchNo  (None, 16, 16, 128)          512       ['conv3_block3_2_conv[0][0]']
 rmalization)

 conv3_block3_2_relu (Activ  (None, 16, 16, 128)          0         ['conv3_block3_2_bn[0][0]']
 ation)

 conv3_block3_3_conv (Conv2  (None, 16, 16, 512)          66048     ['conv3_block3_2_relu[0][0]']
 D)

 conv3_block3_3_bn (BatchNo  (None, 16, 16, 512)          2048      ['conv3_block3_3_conv[0][0]']
 rmalization)

 conv3_block3_add (Add)      (None, 16, 16, 512)          0         ['conv3_block2_out[0][0]',
                                                                     'conv3_block3_3_bn[0][0]']

 conv3_block3_out (Activati  (None, 16, 16, 512)          0         ['conv3_block3_add[0][0]']
 on)

 conv3_block4_1_conv (Conv2  (None, 16, 16, 128)          65664     ['conv3_block3_out[0][0]']
 D)

 conv3_block4_1_bn (BatchNo  (None, 16, 16, 128)          512       ['conv3_block4_1_conv[0][0]']
 rmalization)

 conv3_block4_1_relu (Activ  (None, 16, 16, 128)          0         ['conv3_block4_1_bn[0][0]']
 ation)

 conv3_block4_2_conv (Conv2  (None, 16, 16, 128)          147584    ['conv3_block4_1_relu[0][0]']
 D)

 conv3_block4_2_bn (BatchNo  (None, 16, 16, 128)          512       ['conv3_block4_2_conv[0][0]']
 rmalization)

 conv3_block4_2_relu (Activ  (None, 16, 16, 128)          0         ['conv3_block4_2_bn[0][0]']
 ation)

 conv3_block4_3_conv (Conv2  (None, 16, 16, 512)          66048     ['conv3_block4_2_relu[0][0]']
 D)

 conv3_block4_3_bn (BatchNo  (None, 16, 16, 512)          2048      ['conv3_block4_3_conv[0][0]']
 rmalization)

 conv3_block4_add (Add)      (None, 16, 16, 512)          0         ['conv3_block3_out[0][0]',
                                                                     'conv3_block4_3_bn[0][0]']

 conv3_block4_out (Activati  (None, 16, 16, 512)          0         ['conv3_block4_add[0][0]']
 on)

 conv4_block1_1_conv (Conv2  (None, 8, 8, 256)            131328    ['conv3_block4_out[0][0]']
 D)

 conv4_block1_1_bn (BatchNo  (None, 8, 8, 256)            1024      ['conv4_block1_1_conv[0][0]']
 rmalization)

 conv4_block1_1_relu (Activ  (None, 8, 8, 256)            0         ['conv4_block1_1_bn[0][0]']
 ation)

 conv4_block1_2_conv (Conv2  (None, 8, 8, 256)            590080    ['conv4_block1_1_relu[0][0]']
 D)

 conv4_block1_2_bn (BatchNo  (None, 8, 8, 256)            1024      ['conv4_block1_2_conv[0][0]']
 rmalization)

 conv4_block1_2_relu (Activ  (None, 8, 8, 256)            0         ['conv4_block1_2_bn[0][0]']
 ation)

 conv4_block1_0_conv (Conv2  (None, 8, 8, 1024)           525312    ['conv3_block4_out[0][0]']
 D)

 conv4_block1_3_conv (Conv2  (None, 8, 8, 1024)           263168    ['conv4_block1_2_relu[0][0]']
 D)

 conv4_block1_0_bn (BatchNo  (None, 8, 8, 1024)           4096      ['conv4_block1_0_conv[0][0]']
 rmalization)

 conv4_block1_3_bn (BatchNo  (None, 8, 8, 1024)           4096      ['conv4_block1_3_conv[0][0]']
 rmalization)

 conv4_block1_add (Add)      (None, 8, 8, 1024)           0         ['conv4_block1_0_bn[0][0]',
                                                                     'conv4_block1_3_bn[0][0]']

 conv4_block1_out (Activati  (None, 8, 8, 1024)           0         ['conv4_block1_add[0][0]']
 on)

 conv4_block2_1_conv (Conv2  (None, 8, 8, 256)            262400    ['conv4_block1_out[0][0]']
 D)

 conv4_block2_1_bn (BatchNo  (None, 8, 8, 256)            1024      ['conv4_block2_1_conv[0][0]']
 rmalization)

 conv4_block2_1_relu (Activ  (None, 8, 8, 256)            0         ['conv4_block2_1_bn[0][0]']
 ation)

 conv4_block2_2_conv (Conv2  (None, 8, 8, 256)            590080    ['conv4_block2_1_relu[0][0]']
 D)

 conv4_block2_2_bn (BatchNo  (None, 8, 8, 256)            1024      ['conv4_block2_2_conv[0][0]']
 rmalization)

 conv4_block2_2_relu (Activ  (None, 8, 8, 256)            0         ['conv4_block2_2_bn[0][0]']
 ation)

 conv4_block2_3_conv (Conv2  (None, 8, 8, 1024)           263168    ['conv4_block2_2_relu[0][0]']
 D)

 conv4_block2_3_bn (BatchNo  (None, 8, 8, 1024)           4096      ['conv4_block2_3_conv[0][0]']
 rmalization)

 conv4_block2_add (Add)      (None, 8, 8, 1024)           0         ['conv4_block1_out[0][0]',
                                                                     'conv4_block2_3_bn[0][0]']

 conv4_block2_out (Activati  (None, 8, 8, 1024)           0         ['conv4_block2_add[0][0]']
 on)

 conv4_block3_1_conv (Conv2  (None, 8, 8, 256)            262400    ['conv4_block2_out[0][0]']
 D)

 conv4_block3_1_bn (BatchNo  (None, 8, 8, 256)            1024      ['conv4_block3_1_conv[0][0]']
 rmalization)

 conv4_block3_1_relu (Activ  (None, 8, 8, 256)            0         ['conv4_block3_1_bn[0][0]']
 ation)

 conv4_block3_2_conv (Conv2  (None, 8, 8, 256)            590080    ['conv4_block3_1_relu[0][0]']
 D)

 conv4_block3_2_bn (BatchNo  (None, 8, 8, 256)            1024      ['conv4_block3_2_conv[0][0]']
 rmalization)

 conv4_block3_2_relu (Activ  (None, 8, 8, 256)            0         ['conv4_block3_2_bn[0][0]']
 ation)

 conv4_block3_3_conv (Conv2  (None, 8, 8, 1024)           263168    ['conv4_block3_2_relu[0][0]']
 D)

 conv4_block3_3_bn (BatchNo  (None, 8, 8, 1024)           4096      ['conv4_block3_3_conv[0][0]']
 rmalization)

 conv4_block3_add (Add)      (None, 8, 8, 1024)           0         ['conv4_block2_out[0][0]',
                                                                     'conv4_block3_3_bn[0][0]']

 conv4_block3_out (Activati  (None, 8, 8, 1024)           0         ['conv4_block3_add[0][0]']
 on)

 conv4_block4_1_conv (Conv2  (None, 8, 8, 256)            262400    ['conv4_block3_out[0][0]']
 D)

 conv4_block4_1_bn (BatchNo  (None, 8, 8, 256)            1024      ['conv4_block4_1_conv[0][0]']
 rmalization)

 conv4_block4_1_relu (Activ  (None, 8, 8, 256)            0         ['conv4_block4_1_bn[0][0]']
 ation)

 conv4_block4_2_conv (Conv2  (None, 8, 8, 256)            590080    ['conv4_block4_1_relu[0][0]']
 D)

 conv4_block4_2_bn (BatchNo  (None, 8, 8, 256)            1024      ['conv4_block4_2_conv[0][0]']
 rmalization)

 conv4_block4_2_relu (Activ  (None, 8, 8, 256)            0         ['conv4_block4_2_bn[0][0]']
 ation)

 conv4_block4_3_conv (Conv2  (None, 8, 8, 1024)           263168    ['conv4_block4_2_relu[0][0]']
 D)

 conv4_block4_3_bn (BatchNo  (None, 8, 8, 1024)           4096      ['conv4_block4_3_conv[0][0]']
 rmalization)

 conv4_block4_add (Add)      (None, 8, 8, 1024)           0         ['conv4_block3_out[0][0]',
                                                                     'conv4_block4_3_bn[0][0]']

 conv4_block4_out (Activati  (None, 8, 8, 1024)           0         ['conv4_block4_add[0][0]']
 on)

 conv4_block5_1_conv (Conv2  (None, 8, 8, 256)            262400    ['conv4_block4_out[0][0]']
 D)

 conv4_block5_1_bn (BatchNo  (None, 8, 8, 256)            1024      ['conv4_block5_1_conv[0][0]']
 rmalization)

 conv4_block5_1_relu (Activ  (None, 8, 8, 256)            0         ['conv4_block5_1_bn[0][0]']
 ation)

 conv4_block5_2_conv (Conv2  (None, 8, 8, 256)            590080    ['conv4_block5_1_relu[0][0]']
 D)

 conv4_block5_2_bn (BatchNo  (None, 8, 8, 256)            1024      ['conv4_block5_2_conv[0][0]']
 rmalization)

 conv4_block5_2_relu (Activ  (None, 8, 8, 256)            0         ['conv4_block5_2_bn[0][0]']
 ation)

 conv4_block5_3_conv (Conv2  (None, 8, 8, 1024)           263168    ['conv4_block5_2_relu[0][0]']
 D)

 conv4_block5_3_bn (BatchNo  (None, 8, 8, 1024)           4096      ['conv4_block5_3_conv[0][0]']
 rmalization)

 conv4_block5_add (Add)      (None, 8, 8, 1024)           0         ['conv4_block4_out[0][0]',
                                                                     'conv4_block5_3_bn[0][0]']

 conv4_block5_out (Activati  (None, 8, 8, 1024)           0         ['conv4_block5_add[0][0]']
 on)

 conv4_block6_1_conv (Conv2  (None, 8, 8, 256)            262400    ['conv4_block5_out[0][0]']
 D)

 conv4_block6_1_bn (BatchNo  (None, 8, 8, 256)            1024      ['conv4_block6_1_conv[0][0]']
 rmalization)

 conv4_block6_1_relu (Activ  (None, 8, 8, 256)            0         ['conv4_block6_1_bn[0][0]']
 ation)

 conv4_block6_2_conv (Conv2  (None, 8, 8, 256)            590080    ['conv4_block6_1_relu[0][0]']
 D)

 conv4_block6_2_bn (BatchNo  (None, 8, 8, 256)            1024      ['conv4_block6_2_conv[0][0]']
 rmalization)

 conv4_block6_2_relu (Activ  (None, 8, 8, 256)            0         ['conv4_block6_2_bn[0][0]']
 ation)

 conv4_block6_3_conv (Conv2  (None, 8, 8, 1024)           263168    ['conv4_block6_2_relu[0][0]']
 D)

 conv4_block6_3_bn (BatchNo  (None, 8, 8, 1024)           4096      ['conv4_block6_3_conv[0][0]']
 rmalization)

 conv4_block6_add (Add)      (None, 8, 8, 1024)           0         ['conv4_block5_out[0][0]',
                                                                     'conv4_block6_3_bn[0][0]']

 conv4_block6_out (Activati  (None, 8, 8, 1024)           0         ['conv4_block6_add[0][0]']
 on)

 conv5_block1_1_conv (Conv2  (None, 4, 4, 512)            524800    ['conv4_block6_out[0][0]']
 D)

 conv5_block1_1_bn (BatchNo  (None, 4, 4, 512)            2048      ['conv5_block1_1_conv[0][0]']
 rmalization)

 conv5_block1_1_relu (Activ  (None, 4, 4, 512)            0         ['conv5_block1_1_bn[0][0]']
 ation)

 conv5_block1_2_conv (Conv2  (None, 4, 4, 512)            2359808   ['conv5_block1_1_relu[0][0]']
 D)

 conv5_block1_2_bn (BatchNo  (None, 4, 4, 512)            2048      ['conv5_block1_2_conv[0][0]']
 rmalization)

 conv5_block1_2_relu (Activ  (None, 4, 4, 512)            0         ['conv5_block1_2_bn[0][0]']
 ation)

 conv5_block1_0_conv (Conv2  (None, 4, 4, 2048)           2099200   ['conv4_block6_out[0][0]']
 D)

 conv5_block1_3_conv (Conv2  (None, 4, 4, 2048)           1050624   ['conv5_block1_2_relu[0][0]']
 D)

 conv5_block1_0_bn (BatchNo  (None, 4, 4, 2048)           8192      ['conv5_block1_0_conv[0][0]']
 rmalization)

 conv5_block1_3_bn (BatchNo  (None, 4, 4, 2048)           8192      ['conv5_block1_3_conv[0][0]']
 rmalization)

 conv5_block1_add (Add)      (None, 4, 4, 2048)           0         ['conv5_block1_0_bn[0][0]',
                                                                     'conv5_block1_3_bn[0][0]']

 conv5_block1_out (Activati  (None, 4, 4, 2048)           0         ['conv5_block1_add[0][0]']
 on)

 conv5_block2_1_conv (Conv2  (None, 4, 4, 512)            1049088   ['conv5_block1_out[0][0]']
 D)

 conv5_block2_1_bn (BatchNo  (None, 4, 4, 512)            2048      ['conv5_block2_1_conv[0][0]']
 rmalization)

 conv5_block2_1_relu (Activ  (None, 4, 4, 512)            0         ['conv5_block2_1_bn[0][0]']
 ation)

 conv5_block2_2_conv (Conv2  (None, 4, 4, 512)            2359808   ['conv5_block2_1_relu[0][0]']
 D)

 conv5_block2_2_bn (BatchNo  (None, 4, 4, 512)            2048      ['conv5_block2_2_conv[0][0]']
 rmalization)

 conv5_block2_2_relu (Activ  (None, 4, 4, 512)            0         ['conv5_block2_2_bn[0][0]']
 ation)

 conv5_block2_3_conv (Conv2  (None, 4, 4, 2048)           1050624   ['conv5_block2_2_relu[0][0]']
 D)

 conv5_block2_3_bn (BatchNo  (None, 4, 4, 2048)           8192      ['conv5_block2_3_conv[0][0]']
 rmalization)

 conv5_block2_add (Add)      (None, 4, 4, 2048)           0         ['conv5_block1_out[0][0]',
                                                                     'conv5_block2_3_bn[0][0]']

 conv5_block2_out (Activati  (None, 4, 4, 2048)           0         ['conv5_block2_add[0][0]']
 on)

 conv5_block3_1_conv (Conv2  (None, 4, 4, 512)            1049088   ['conv5_block2_out[0][0]']
 D)

 conv5_block3_1_bn (BatchNo  (None, 4, 4, 512)            2048      ['conv5_block3_1_conv[0][0]']
 rmalization)

 conv5_block3_1_relu (Activ  (None, 4, 4, 512)            0         ['conv5_block3_1_bn[0][0]']
 ation)

 conv5_block3_2_conv (Conv2  (None, 4, 4, 512)            2359808   ['conv5_block3_1_relu[0][0]']
 D)

 conv5_block3_2_bn (BatchNo  (None, 4, 4, 512)            2048      ['conv5_block3_2_conv[0][0]']
 rmalization)

 conv5_block3_2_relu (Activ  (None, 4, 4, 512)            0         ['conv5_block3_2_bn[0][0]']
 ation)

 conv5_block3_3_conv (Conv2  (None, 4, 4, 2048)           1050624   ['conv5_block3_2_relu[0][0]']
 D)

 conv5_block3_3_bn (BatchNo  (None, 4, 4, 2048)           8192      ['conv5_block3_3_conv[0][0]']
 rmalization)

 conv5_block3_add (Add)      (None, 4, 4, 2048)           0         ['conv5_block2_out[0][0]',
                                                                     'conv5_block3_3_bn[0][0]']

 conv5_block3_out (Activati  (None, 4, 4, 2048)           0         ['conv5_block3_add[0][0]']
 on)

 global_average_pooling2d_1  (None, 2048)                 0         ['conv5_block3_out[0][0]']
  (GlobalAveragePooling2D)

 dense_2 (Dense)             (None, 128)                  262272    ['global_average_pooling2d_1[0
                                                                    ][0]']

 dense_3 (Dense)             (None, 7)                    903       ['dense_2[0][0]']

==================================================================================================
Total params: 23850887 (90.98 MB)
Trainable params: 23797767 (90.78 MB)
Non-trainable params: 53120 (207.50 KB)
__________________________________________________________________________________________________
WARNING:absl:`lr` is deprecated in Keras optimizer, please use `learning_rate` or use the legacy optimizer, e.g.,tf.keras.optimizers.legacy.Adam.
…
